…
	Number of train images: 800
	Dataset enlarge ratio: 1
	Batch size per gpu: 4
	World size (gpu number): 1
	Require iter number per epoch: 200
	Total epochs: 1500; iters: 300000.
2026-05-09 11:37:01,639 INFO: Dataset Dataset_PairedImage - ValSet is created.
2026-05-09 11:37:01,639 INFO: Number of val images/folders in ValSet: 90
2026-05-09 11:37:01,639 INFO: Set pretrain_network_g to /root/WaterMamba/experiments/WaterMamba/models/net_g_20000.pth
2026-05-09 11:37:01,996 INFO: Network: WaterMamba, with parameters: 5,189,376
2026-05-09 11:37:01,997 INFO: WaterMamba(
  (patch_embed): OverlapPatchEmbed(
    (proj): Conv2d(3, 64, kernel_size=(3, 3), stride=(1, 1), padding=(1, 1), bias=False)
  )
  (encoder_level1): Sequential(
    (0): SCOSSBlock(
      (ln_1): LayerNorm((64,), eps=1e-06, elementwise_affine=True)
      (SOSS): SS2D(
        (in_proj): Linear(in_features=64, out_features=256, bias=False)
        (conv2d): Conv2d(128, 128, kernel_size=(3, 3), stride=(1, 1), padding=(1, 1), groups=128)
        (act): SiLU()
        (out_norm): LayerNorm((128,), eps=1e-05, elementwise_affine=True)
        (out_proj): Linear(in_features=128, out_features=64, bias=False)
      )
      (drop_path1): DropPath(drop_prob=0.000)
    )
  )
  (down1_2): Downsample_DWT(
    (dwt): DWTForward()
    (conv): Conv2d(256, 128, kernel_size=(1, 1), stride=(1, 1), bias=False)
  )
  (encoder_level2): Sequential(
    (0): SCOSSBlock(
      (ln_1): LayerNorm((128,), eps=1e-06, elementwise_affine=True)
      (SOSS): SS2D(
        (in_proj): Linear(in_features=128, out_features=512, bias=False)
        (conv2d): Conv2d(256, 256, kernel_size=(3, 3), stride=(1, 1), padding=(1, 1), groups=256)
        (act): SiLU()
        (out_norm): LayerNorm((256,), eps=1e-05, elementwise_affine=True)
        (out_proj): Linear(in_features=256, out_features=128, bias=False)
      )
      (drop_path1): DropPath(drop_prob=0.000)
    )
  )
  (down2_3): Downsample_DWT(
    (dwt): DWTForward()
    (conv): Conv2d(512, 256, kernel_size=(1, 1), stride=(1, 1), bias=False)
  )
  (encoder_level3): Sequential(
    (0): SCOSSBlock(
      (ln_1): LayerNorm((256,), eps=1e-06, elementwise_affine=True)
      (SOSS): SS2D(
        (in_proj): Linear(in_features=256, out_features=1024, bias=False)
        (conv2d): Conv2d(512, 512, kernel_size=(3, 3), stride=(1, 1), padding=(1, 1), groups=512)
        (act): SiLU()
        (out_norm): LayerNorm((512,), eps=1e-05, elementwise_affine=True)
        (out_proj): Linear(in_features=512, out_features=256, bias=False)
      )
      (drop_path1): DropPath(drop_prob=0.000)
    )
  )
  (down3_4): Downsample_DWT(
    (dwt): DWTForward()
    (conv): Conv2d(1024, 512, kernel_size=(1, 1), stride=(1, 1), bias=False)
  )
  (latent): Sequential(
    (0): SCOSSBlock(
      (ln_1): LayerNorm((512,), eps=1e-06, elementwise_affine=True)
      (SOSS): SS2D(
        (in_proj): Linear(in_features=512, out_features=2048, bias=False)
        (conv2d): Conv2d(1024, 1024, kernel_size=(3, 3), stride=(1, 1), padding=(1, 1), groups=1024)
        (act): SiLU()
        (out_norm): LayerNorm((1024,), eps=1e-05, elementwise_affine=True)
        (out_proj): Linear(in_features=1024, out_features=512, bias=False)
      )
      (drop_path1): DropPath(drop_prob=0.000)
    )
  )
  (up4_3): Upsample_IDWT(
    (idwt): DWTInverse()
    (conv): Conv2d(512, 1024, kernel_size=(1, 1), stride=(1, 1), bias=False)
  )
  (reduce_chan_level3): Conv2d(512, 256, kernel_size=(1, 1), stride=(1, 1), bias=False)
  (decoder_level3): Sequential(
    (0): SCOSSBlock(
      (ln_1): LayerNorm((256,), eps=1e-06, elementwise_affine=True)
      (SOSS): SS2D(
        (in_proj): Linear(in_features=256, out_features=1024, bias=False)
        (conv2d): Conv2d(512, 512, kernel_size=(3, 3), stride=(1, 1), padding=(1, 1), groups=512)
        (act): SiLU()
        (out_norm): LayerNorm((512,), eps=1e-05, elementwise_affine=True)
        (out_proj): Linear(in_features=512, out_features=256, bias=False)
      )
      (drop_path1): DropPath(drop_prob=0.000)
    )
  )
  (up3_2): Upsample_IDWT(
    (idwt): DWTInverse()
    (conv): Conv2d(256, 512, kernel_size=(1, 1), stride=(1, 1), bias=False)
  )
  (reduce_chan_level2): Conv2d(256, 128, kernel_size=(1, 1), stride=(1, 1), bias=False)
  (decoder_level2): Sequential(
    (0): SCOSSBlock(
      (ln_1): LayerNorm((128,), eps=1e-06, elementwise_affine=True)
      (SOSS): SS2D(
        (in_proj): Linear(in_features=128, out_features=512, bias=False)
        (conv2d): Conv2d(256, 256, kernel_size=(3, 3), stride=(1, 1), padding=(1, 1), groups=256)
        (act): SiLU()
        (out_norm): LayerNorm((256,), eps=1e-05, elementwise_affine=True)
        (out_proj): Linear(in_features=256, out_features=128, bias=False)
      )
      (drop_path1): DropPath(drop_prob=0.000)
    )
  )
  (up2_1): Upsample_IDWT(
    (idwt): DWTInverse()
    (conv): Conv2d(128, 256, kernel_size=(1, 1), stride=(1, 1), bias=False)
  )
  (reduce_chan_level1): Conv2d(128, 64, kernel_size=(1, 1), stride=(1, 1), bias=False)
  (decoder_level1): Sequential(
    (0): SCOSSBlock(
      (ln_1): LayerNorm((64,), eps=1e-06, elementwise_affine=True)
      (SOSS): SS2D(
        (in_proj): Linear(in_features=64, out_features=256, bias=False)
        (conv2d): Conv2d(128, 128, kernel_size=(3, 3), stride=(1, 1), padding=(1, 1), groups=128)
        (act): SiLU()
        (out_norm): LayerNorm((128,), eps=1e-05, elementwise_affine=True)
        (out_proj): Linear(in_features=128, out_features=64, bias=False)
      )
      (drop_path1): DropPath(drop_prob=0.000)
    )
  )
  (output): Sequential(
    (0): GroupNorm(32, 64, eps=1e-05, affine=True)
    (1): SiLU()
    (2): Conv2d(64, 3, kernel_size=(1, 1), stride=(1, 1), bias=False)
  )
)
2026-05-09 11:37:01,997 INFO: Loading WaterMamba model from /root/WaterMamba/experiments/WaterMamba/models/net_g_20000.pth.
2026-05-09 11:37:02,022 INFO: Model [ImageCleanModel] is created.
2026-05-09 11:37:02,023 INFO: Resuming training from epoch: 99, iter: 20000.
2026-05-09 11:37:02,077 INFO: Start training from epoch: 99, iter: 20000
2026-05-09 11:37:02,571 INFO: 
…
