…
2026-04-19 17:06:08,527 INFO: Dataset Dataset_PairedImage - TrainSet is created.
2026-04-19 17:06:08,528 INFO: Training statistics:
	Number of train images: 6
	Dataset enlarge ratio: 1
	Batch size per gpu: 2
	World size (gpu number): 1
	Require iter number per epoch: 3
	Total epochs: 100000; iters: 300000.
2026-04-19 17:06:08,528 INFO: Dataset Dataset_PairedImage - ValSet is created.
2026-04-19 17:06:08,528 INFO: Number of val images/folders in ValSet: 6
2026-04-19 17:06:09,175 INFO: Network: WaterMamba, with parameters: 4,221,472
2026-04-19 17:06:09,176 INFO: WaterMamba(
  (patch_embed): OverlapPatchEmbed(
    (proj): Conv2d(3, 24, kernel_size=(3, 3), stride=(1, 1), padding=(1, 1), bias=False)
  )
  (encoder_level1): Sequential(
    (0): SCOSSBlock(
      (ln_1): LayerNorm((24,), eps=1e-06, elementwise_affine=True)
      (SOSS): SS2D(
        (in_proj): Linear(in_features=24, out_features=96, bias=False)
        (conv2d): Conv2d(48, 48, kernel_size=(3, 3), stride=(1, 1), padding=(1, 1), groups=48)
        (act): SiLU()
        (out_norm): LayerNorm((48,), eps=1e-05, elementwise_affine=True)
        (out_proj): Linear(in_features=48, out_features=24, bias=False)
      )
      (drop_path1): DropPath(drop_prob=0.000)
      (drop_path2): DropPath(drop_prob=0.000)
      (conv_blk): MSFFN(
        (a): Sequential(
          (0): Conv2d(24, 24, kernel_size=(1, 1), stride=(1, 1))
          (1): Conv2d(24, 24, kernel_size=(1, 1), stride=(1, 1), groups=24)
        )
        (a1): Sequential(
          (0): Conv2d(24, 24, kernel_size=(1, 1), stride=(1, 1))
          (1): Conv2d(24, 24, kernel_size=(1, 1), stride=(1, 1), groups=24)
        )
        (relu1): ReLU()
        (b): Sequential(
          (0): Conv2d(24, 24, kernel_size=(1, 1), stride=(1, 1))
          (1): Conv2d(24, 24, kernel_size=(3, 3), stride=(1, 1), padding=(1, 1), groups=24)
        )
        (b1): Sequential(
          (0): Conv2d(24, 24, kernel_size=(1, 1), stride=(1, 1))
          (1): Conv2d(24, 24, kernel_size=(3, 3), stride=(1, 1), padding=(1, 1), groups=24)
        )
        (relu2): ReLU()
        (c): Sequential(
          (0): Conv2d(24, 24, kernel_size=(1, 1), stride=(1, 1))
          (1): Conv2d(24, 24, kernel_size=(5, 5), stride=(1, 1), padding=(2, 2), groups=24)
        )
        (c1): Sequential(
          (0): Conv2d(24, 24, kernel_size=(1, 1), stride=(1, 1))
          (1): Conv2d(24, 24, kernel_size=(5, 5), stride=(1, 1), padding=(2, 2), groups=24)
        )
        (relu3): ReLU()
        (conv_out): Conv2d(72, 24, kernel_size=(1, 1), stride=(1, 1))
        (ln): LayerNorm((24,), eps=1e-05, elementwise_affine=True)
      )
      (ln_2): LayerNorm((24,), eps=1e-05, elementwise_affine=True)
      (CCOSS): CCOSS(
        (H_CSSM): Sequential(
          (0): ChannelMamba(
            (in_proj): Linear(in_features=256, out_features=512, bias=False)
            (act): SiLU()
            (ln): LayerNorm((24,), eps=1e-05, elementwise_affine=True)
            (ln1): LayerNorm((24,), eps=1e-05, elementwise_affine=True)
            (conv2d): Conv2d(24, 24, kernel_size=(3, 3), stride=(1, 1), padding=(1, 1), groups=24)
            (x_proj): Linear(in_features=256, out_features=48, bias=False)
            (dt_proj): Linear(in_features=16, out_features=256, bias=True)
            (x_proj_b): Linear(in_features=256, out_features=48, bias=False)
            (dt_proj_b): Linear(in_features=16, out_features=256, bias=True)
          )
          (1): ChannelMamba(
            (in_proj): Linear(in_features=256, out_features=512, bias=False)
            (act): SiLU()
            (ln): LayerNorm((24,), eps=1e-05, elementwise_affine=True)
            (ln1): LayerNorm((24,), eps=1e-05, elementwise_affine=True)
            (conv2d): Conv2d(24, 24, kernel_size=(3, 3), stride=(1, 1), padding=(1, 1), groups=24)
            (x_proj): Linear(in_features=256, out_features=48, bias=False)
            (dt_proj): Linear(in_features=16, out_features=256, bias=True)
            (x_proj_b): Linear(in_features=256, out_features=48, bias=False)
            (dt_proj_b): Linear(in_features=16, out_features=256, bias=True)
          )
        )
        (W_CSSM): Sequential(
          (0): ChannelMamba(
            (in_proj): Linear(in_features=256, out_features=512, bias=False)
            (act): SiLU()
            (ln): LayerNorm((24,), eps=1e-05, elementwise_affine=True)
            (ln1): LayerNorm((24,), eps=1e-05, elementwise_affine=True)
            (conv2d): Conv2d(24, 24, kernel_size=(3, 3), stride=(1, 1), padding=(1, 1), groups=24)
            (x_proj): Linear(in_features=256, out_features=48, bias=False)
            (dt_proj): Linear(in_features=16, out_features=256, bias=True)
            (x_proj_b): Linear(in_features=256, out_features=48, bias=False)
            (dt_proj_b): Linear(in_features=16, out_features=256, bias=True)
          )
          (1): ChannelMamba(
            (in_proj): Linear(in_features=256, out_features=512, bias=False)
            (act): SiLU()
            (ln): LayerNorm((24,), eps=1e-05, elementwise_affine=True)
            (ln1): LayerNorm((24,), eps=1e-05, elementwise_affine=True)
            (conv2d): Conv2d(24, 24, kernel_size=(3, 3), stride=(1, 1), padding=(1, 1), groups=24)
            (x_proj): Linear(in_features=256, out_features=48, bias=False)
            (dt_proj): Linear(in_features=16, out_features=256, bias=True)
            (x_proj_b): Linear(in_features=256, out_features=48, bias=False)
            (dt_proj_b): Linear(in_features=16, out_features=256, bias=True)
          )
        )
        (ln): LayerNorm((24,), eps=1e-05, elementwise_affine=True)
        (softmax): Softmax(dim=1)
        (conv_1x1): Conv2d(24, 24, kernel_size=(1, 1), stride=(1, 1), bias=False)
        (dwconv): Conv2d(24, 24, kernel_size=(1, 1), stride=(1, 1), groups=24, bias=False)
        (relu): ReLU()
        (bn): BatchNorm2d(24, eps=1e-05, momentum=0.1, affine=True, track_running_stats=True)
        (silu_h): SiLU()
        (silu_w): SiLU()
        (sigmoid_h): Sigmoid()
        (sigmoid_w): Sigmoid()
      )
    )
  )
  (down1_2): Downsample(
    (body): Sequential(
      (0): Conv2d(24, 12, kernel_size=(3, 3), stride=(1, 1), padding=(1, 1), bias=False)
      (1): PixelUnshuffle(downscale_factor=2)
    )
  )
  (encoder_level2): Sequential(
    (0): SCOSSBlock(
      (ln_1): LayerNorm((48,), eps=1e-06, elementwise_affine=True)
      (SOSS): SS2D(
        (in_proj): Linear(in_features=48, out_features=192, bias=False)
        (conv2d): Conv2d(96, 96, kernel_size=(3, 3), stride=(1, 1), padding=(1, 1), groups=96)
        (act): SiLU()
        (out_norm): LayerNorm((96,), eps=1e-05, elementwise_affine=True)
        (out_proj): Linear(in_features=96, out_features=48, bias=False)
      )
      (drop_path1): DropPath(drop_prob=0.000)
      (drop_path2): DropPath(drop_prob=0.000)
      (conv_blk): MSFFN(
        (a): Sequential(
          (0): Conv2d(48, 48, kernel_size=(1, 1), stride=(1, 1))
          (1): Conv2d(48, 48, kernel_size=(1, 1), stride=(1, 1), groups=48)
        )
        (a1): Sequential(
          (0): Conv2d(48, 48, kernel_size=(1, 1), stride=(1, 1))
          (1): Conv2d(48, 48, kernel_size=(1, 1), stride=(1, 1), groups=48)
        )
        (relu1): ReLU()
        (b): Sequential(
          (0): Conv2d(48, 48, kernel_size=(1, 1), stride=(1, 1))
          (1): Conv2d(48, 48, kernel_size=(3, 3), stride=(1, 1), padding=(1, 1), groups=48)
        )
        (b1): Sequential(
          (0): Conv2d(48, 48, kernel_size=(1, 1), stride=(1, 1))
          (1): Conv2d(48, 48, kernel_size=(3, 3), stride=(1, 1), padding=(1, 1), groups=48)
        )
        (relu2): ReLU()
        (c): Sequential(
          (0): Conv2d(48, 48, kernel_size=(1, 1), stride=(1, 1))
          (1): Conv2d(48, 48, kernel_size=(5, 5), stride=(1, 1), padding=(2, 2), groups=48)
        )
        (c1): Sequential(
          (0): Conv2d(48, 48, kernel_size=(1, 1), stride=(1, 1))
          (1): Conv2d(48, 48, kernel_size=(5, 5), stride=(1, 1), padding=(2, 2), groups=48)
        )
        (relu3): ReLU()
        (conv_out): Conv2d(144, 48, kernel_size=(1, 1), stride=(1, 1))
        (ln): LayerNorm((48,), eps=1e-05, elementwise_affine=True)
      )
      (ln_2): LayerNorm((48,), eps=1e-05, elementwise_affine=True)
      (CCOSS): CCOSS(
        (H_CSSM): Sequential(
          (0): ChannelMamba(
            (in_proj): Linear(in_features=128, out_features=256, bias=False)
            (act): SiLU()
            (ln): LayerNorm((48,), eps=1e-05, elementwise_affine=True)
            (ln1): LayerNorm((48,), eps=1e-05, elementwise_affine=True)
            (conv2d): Conv2d(48, 48, kernel_size=(3, 3), stride=(1, 1), padding=(1, 1), groups=48)
            (x_proj): Linear(in_features=128, out_features=40, bias=False)
            (dt_proj): Linear(in_features=8, out_features=128, bias=True)
            (x_proj_b): Linear(in_features=128, out_features=40, bias=False)
            (dt_proj_b): Linear(in_features=8, out_features=128, bias=True)
          )
          (1): ChannelMamba(
            (in_proj): Linear(in_features=128, out_features=256, bias=False)
            (act): SiLU()
            (ln): LayerNorm((48,), eps=1e-05, elementwise_affine=True)
            (ln1): LayerNorm((48,), eps=1e-05, elementwise_affine=True)
            (conv2d): Conv2d(48, 48, kernel_size=(3, 3), stride=(1, 1), padding=(1, 1), groups=48)
            (x_proj): Linear(in_features=128, out_features=40, bias=False)
            (dt_proj): Linear(in_features=8, out_features=128, bias=True)
            (x_proj_b): Linear(in_features=128, out_features=40, bias=False)
            (dt_proj_b): Linear(in_features=8, out_features=128, bias=True)
          )
        )
        (W_CSSM): Sequential(
          (0): ChannelMamba(
            (in_proj): Linear(in_features=128, out_features=256, bias=False)
            (act): SiLU()
            (ln): LayerNorm((48,), eps=1e-05, elementwise_affine=True)
            (ln1): LayerNorm((48,), eps=1e-05, elementwise_affine=True)
            (conv2d): Conv2d(48, 48, kernel_size=(3, 3), stride=(1, 1), padding=(1, 1), groups=48)
            (x_proj): Linear(in_features=128, out_features=40, bias=False)
            (dt_proj): Linear(in_features=8, out_features=128, bias=True)
            (x_proj_b): Linear(in_features=128, out_features=40, bias=False)
            (dt_proj_b): Linear(in_features=8, out_features=128, bias=True)
          )
          (1): ChannelMamba(
            (in_proj): Linear(in_features=128, out_features=256, bias=False)
            (act): SiLU()
            (ln): LayerNorm((48,), eps=1e-05, elementwise_affine=True)
            (ln1): LayerNorm((48,), eps=1e-05, elementwise_affine=True)
            (conv2d): Conv2d(48, 48, kernel_size=(3, 3), stride=(1, 1), padding=(1, 1), groups=48)
            (x_proj): Linear(in_features=128, out_features=40, bias=False)
            (dt_proj): Linear(in_features=8, out_features=128, bias=True)
            (x_proj_b): Linear(in_features=128, out_features=40, bias=False)
            (dt_proj_b): Linear(in_features=8, out_features=128, bias=True)
          )
        )
        (ln): LayerNorm((48,), eps=1e-05, elementwise_affine=True)
        (softmax): Softmax(dim=1)
        (conv_1x1): Conv2d(48, 48, kernel_size=(1, 1), stride=(1, 1), bias=False)
        (dwconv): Conv2d(48, 48, kernel_size=(1, 1), stride=(1, 1), groups=48, bias=False)
        (relu): ReLU()
        (bn): BatchNorm2d(48, eps=1e-05, momentum=0.1, affine=True, track_running_stats=True)
        (silu_h): SiLU()
        (silu_w): SiLU()
        (sigmoid_h): Sigmoid()
        (sigmoid_w): Sigmoid()
      )
    )
  )
  (down2_3): Downsample(
    (body): Sequential(
      (0): Conv2d(48, 24, kernel_size=(3, 3), stride=(1, 1), padding=(1, 1), bias=False)
      (1): PixelUnshuffle(downscale_factor=2)
    )
  )
  (encoder_level3): Sequential(
    (0): SCOSSBlock(
      (ln_1): LayerNorm((96,), eps=1e-06, elementwise_affine=True)
      (SOSS): SS2D(
        (in_proj): Linear(in_features=96, out_features=384, bias=False)
        (conv2d): Conv2d(192, 192, kernel_size=(3, 3), stride=(1, 1), padding=(1, 1), groups=192)
        (act): SiLU()
        (out_norm): LayerNorm((192,), eps=1e-05, elementwise_affine=True)
        (out_proj): Linear(in_features=192, out_features=96, bias=False)
      )
      (drop_path1): DropPath(drop_prob=0.000)
      (drop_path2): DropPath(drop_prob=0.000)
      (conv_blk): MSFFN(
        (a): Sequential(
          (0): Conv2d(96, 96, kernel_size=(1, 1), stride=(1, 1))
          (1): Conv2d(96, 96, kernel_size=(1, 1), stride=(1, 1), groups=96)
        )
        (a1): Sequential(
          (0): Conv2d(96, 96, kernel_size=(1, 1), stride=(1, 1))
          (1): Conv2d(96, 96, kernel_size=(1, 1), stride=(1, 1), groups=96)
        )
        (relu1): ReLU()
        (b): Sequential(
          (0): Conv2d(96, 96, kernel_size=(1, 1), stride=(1, 1))
          (1): Conv2d(96, 96, kernel_size=(3, 3), stride=(1, 1), padding=(1, 1), groups=96)
        )
        (b1): Sequential(
          (0): Conv2d(96, 96, kernel_size=(1, 1), stride=(1, 1))
          (1): Conv2d(96, 96, kernel_size=(3, 3), stride=(1, 1), padding=(1, 1), groups=96)
        )
        (relu2): ReLU()
        (c): Sequential(
          (0): Conv2d(96, 96, kernel_size=(1, 1), stride=(1, 1))
          (1): Conv2d(96, 96, kernel_size=(5, 5), stride=(1, 1), padding=(2, 2), groups=96)
        )
        (c1): Sequential(
          (0): Conv2d(96, 96, kernel_size=(1, 1), stride=(1, 1))
          (1): Conv2d(96, 96, kernel_size=(5, 5), stride=(1, 1), padding=(2, 2), groups=96)
        )
        (relu3): ReLU()
        (conv_out): Conv2d(288, 96, kernel_size=(1, 1), stride=(1, 1))
        (ln): LayerNorm((96,), eps=1e-05, elementwise_affine=True)
      )
      (ln_2): LayerNorm((96,), eps=1e-05, elementwise_affine=True)
      (CCOSS): CCOSS(
        (H_CSSM): Sequential(
          (0): ChannelMamba(
            (in_proj): Linear(in_features=64, out_features=128, bias=False)
            (act): SiLU()
            (ln): LayerNorm((96,), eps=1e-05, elementwise_affine=True)
            (ln1): LayerNorm((96,), eps=1e-05, elementwise_affine=True)
            (conv2d): Conv2d(96, 96, kernel_size=(3, 3), stride=(1, 1), padding=(1, 1), groups=96)
            (x_proj): Linear(in_features=64, out_features=36, bias=False)
            (dt_proj): Linear(in_features=4, out_features=64, bias=True)
            (x_proj_b): Linear(in_features=64, out_features=36, bias=False)
            (dt_proj_b): Linear(in_features=4, out_features=64, bias=True)
          )
          (1): ChannelMamba(
            (in_proj): Linear(in_features=64, out_features=128, bias=False)
            (act): SiLU()
            (ln): LayerNorm((96,), eps=1e-05, elementwise_affine=True)
            (ln1): LayerNorm((96,), eps=1e-05, elementwise_affine=True)
            (conv2d): Conv2d(96, 96, kernel_size=(3, 3), stride=(1, 1), padding=(1, 1), groups=96)
            (x_proj): Linear(in_features=64, out_features=36, bias=False)
            (dt_proj): Linear(in_features=4, out_features=64, bias=True)
            (x_proj_b): Linear(in_features=64, out_features=36, bias=False)
            (dt_proj_b): Linear(in_features=4, out_features=64, bias=True)
          )
        )
        (W_CSSM): Sequential(
          (0): ChannelMamba(
            (in_proj): Linear(in_features=64, out_features=128, bias=False)
            (act): SiLU()
            (ln): LayerNorm((96,), eps=1e-05, elementwise_affine=True)
            (ln1): LayerNorm((96,), eps=1e-05, elementwise_affine=True)
            (conv2d): Conv2d(96, 96, kernel_size=(3, 3), stride=(1, 1), padding=(1, 1), groups=96)
            (x_proj): Linear(in_features=64, out_features=36, bias=False)
            (dt_proj): Linear(in_features=4, out_features=64, bias=True)
            (x_proj_b): Linear(in_features=64, out_features=36, bias=False)
            (dt_proj_b): Linear(in_features=4, out_features=64, bias=True)
          )
          (1): ChannelMamba(
            (in_proj): Linear(in_features=64, out_features=128, bias=False)
            (act): SiLU()
            (ln): LayerNorm((96,), eps=1e-05, elementwise_affine=True)
            (ln1): LayerNorm((96,), eps=1e-05, elementwise_affine=True)
            (conv2d): Conv2d(96, 96, kernel_size=(3, 3), stride=(1, 1), padding=(1, 1), groups=96)
            (x_proj): Linear(in_features=64, out_features=36, bias=False)
            (dt_proj): Linear(in_features=4, out_features=64, bias=True)
            (x_proj_b): Linear(in_features=64, out_features=36, bias=False)
            (dt_proj_b): Linear(in_features=4, out_features=64, bias=True)
          )
        )
        (ln): LayerNorm((96,), eps=1e-05, elementwise_affine=True)
        (softmax): Softmax(dim=1)
        (conv_1x1): Conv2d(96, 96, kernel_size=(1, 1), stride=(1, 1), bias=False)
        (dwconv): Conv2d(96, 96, kernel_size=(1, 1), stride=(1, 1), groups=96, bias=False)
        (relu): ReLU()
        (bn): BatchNorm2d(96, eps=1e-05, momentum=0.1, affine=True, track_running_stats=True)
        (silu_h): SiLU()
        (silu_w): SiLU()
        (sigmoid_h): Sigmoid()
        (sigmoid_w): Sigmoid()
      )
    )
  )
  (down3_4): Downsample(
    (body): Sequential(
      (0): Conv2d(96, 48, kernel_size=(3, 3), stride=(1, 1), padding=(1, 1), bias=False)
      (1): PixelUnshuffle(downscale_factor=2)
    )
  )
  (latent): Sequential(
    (0): SCOSSBlock(
      (ln_1): LayerNorm((192,), eps=1e-06, elementwise_affine=True)
      (SOSS): SS2D(
        (in_proj): Linear(in_features=192, out_features=768, bias=False)
        (conv2d): Conv2d(384, 384, kernel_size=(3, 3), stride=(1, 1), padding=(1, 1), groups=384)
        (act): SiLU()
        (out_norm): LayerNorm((384,), eps=1e-05, elementwise_affine=True)
        (out_proj): Linear(in_features=384, out_features=192, bias=False)
      )
      (drop_path1): DropPath(drop_prob=0.000)
      (drop_path2): DropPath(drop_prob=0.000)
      (conv_blk): MSFFN(
        (a): Sequential(
          (0): Conv2d(192, 192, kernel_size=(1, 1), stride=(1, 1))
          (1): Conv2d(192, 192, kernel_size=(1, 1), stride=(1, 1), groups=192)
        )
        (a1): Sequential(
          (0): Conv2d(192, 192, kernel_size=(1, 1), stride=(1, 1))
          (1): Conv2d(192, 192, kernel_size=(1, 1), stride=(1, 1), groups=192)
        )
        (relu1): ReLU()
        (b): Sequential(
          (0): Conv2d(192, 192, kernel_size=(1, 1), stride=(1, 1))
          (1): Conv2d(192, 192, kernel_size=(3, 3), stride=(1, 1), padding=(1, 1), groups=192)
        )
        (b1): Sequential(
          (0): Conv2d(192, 192, kernel_size=(1, 1), stride=(1, 1))
          (1): Conv2d(192, 192, kernel_size=(3, 3), stride=(1, 1), padding=(1, 1), groups=192)
        )
        (relu2): ReLU()
        (c): Sequential(
          (0): Conv2d(192, 192, kernel_size=(1, 1), stride=(1, 1))
          (1): Conv2d(192, 192, kernel_size=(5, 5), stride=(1, 1), padding=(2, 2), groups=192)
        )
        (c1): Sequential(
          (0): Conv2d(192, 192, kernel_size=(1, 1), stride=(1, 1))
          (1): Conv2d(192, 192, kernel_size=(5, 5), stride=(1, 1), padding=(2, 2), groups=192)
        )
        (relu3): ReLU()
        (conv_out): Conv2d(576, 192, kernel_size=(1, 1), stride=(1, 1))
        (ln): LayerNorm((192,), eps=1e-05, elementwise_affine=True)
      )
      (ln_2): LayerNorm((192,), eps=1e-05, elementwise_affine=True)
      (CCOSS): CCOSS(
        (H_CSSM): Sequential(
          (0): ChannelMamba(
            (in_proj): Linear(in_features=32, out_features=64, bias=False)
            (act): SiLU()
            (ln): LayerNorm((192,), eps=1e-05, elementwise_affine=True)
            (ln1): LayerNorm((192,), eps=1e-05, elementwise_affine=True)
            (conv2d): Conv2d(192, 192, kernel_size=(3, 3), stride=(1, 1), padding=(1, 1), groups=192)
            (x_proj): Linear(in_features=32, out_features=34, bias=False)
            (dt_proj): Linear(in_features=2, out_features=32, bias=True)
            (x_proj_b): Linear(in_features=32, out_features=34, bias=False)
            (dt_proj_b): Linear(in_features=2, out_features=32, bias=True)
          )
          (1): ChannelMamba(
            (in_proj): Linear(in_features=32, out_features=64, bias=False)
            (act): SiLU()
            (ln): LayerNorm((192,), eps=1e-05, elementwise_affine=True)
            (ln1): LayerNorm((192,), eps=1e-05, elementwise_affine=True)
            (conv2d): Conv2d(192, 192, kernel_size=(3, 3), stride=(1, 1), padding=(1, 1), groups=192)
            (x_proj): Linear(in_features=32, out_features=34, bias=False)
            (dt_proj): Linear(in_features=2, out_features=32, bias=True)
            (x_proj_b): Linear(in_features=32, out_features=34, bias=False)
            (dt_proj_b): Linear(in_features=2, out_features=32, bias=True)
          )
        )
        (W_CSSM): Sequential(
          (0): ChannelMamba(
            (in_proj): Linear(in_features=32, out_features=64, bias=False)
            (act): SiLU()
            (ln): LayerNorm((192,), eps=1e-05, elementwise_affine=True)
            (ln1): LayerNorm((192,), eps=1e-05, elementwise_affine=True)
            (conv2d): Conv2d(192, 192, kernel_size=(3, 3), stride=(1, 1), padding=(1, 1), groups=192)
            (x_proj): Linear(in_features=32, out_features=34, bias=False)
            (dt_proj): Linear(in_features=2, out_features=32, bias=True)
            (x_proj_b): Linear(in_features=32, out_features=34, bias=False)
            (dt_proj_b): Linear(in_features=2, out_features=32, bias=True)
          )
          (1): ChannelMamba(
            (in_proj): Linear(in_features=32, out_features=64, bias=False)
            (act): SiLU()
            (ln): LayerNorm((192,), eps=1e-05, elementwise_affine=True)
            (ln1): LayerNorm((192,), eps=1e-05, elementwise_affine=True)
            (conv2d): Conv2d(192, 192, kernel_size=(3, 3), stride=(1, 1), padding=(1, 1), groups=192)
            (x_proj): Linear(in_features=32, out_features=34, bias=False)
            (dt_proj): Linear(in_features=2, out_features=32, bias=True)
            (x_proj_b): Linear(in_features=32, out_features=34, bias=False)
            (dt_proj_b): Linear(in_features=2, out_features=32, bias=True)
          )
        )
        (ln): LayerNorm((192,), eps=1e-05, elementwise_affine=True)
        (softmax): Softmax(dim=1)
        (conv_1x1): Conv2d(192, 192, kernel_size=(1, 1), stride=(1, 1), bias=False)
        (dwconv): Conv2d(192, 192, kernel_size=(1, 1), stride=(1, 1), groups=192, bias=False)
        (relu): ReLU()
        (bn): BatchNorm2d(192, eps=1e-05, momentum=0.1, affine=True, track_running_stats=True)
        (silu_h): SiLU()
        (silu_w): SiLU()
        (sigmoid_h): Sigmoid()
        (sigmoid_w): Sigmoid()
      )
    )
  )
  (up4_3): Upsample(
    (body): Sequential(
      (0): Conv2d(192, 384, kernel_size=(3, 3), stride=(1, 1), padding=(1, 1), bias=False)
      (1): PixelShuffle(upscale_factor=2)
    )
  )
  (reduce_chan_level3): Conv2d(192, 96, kernel_size=(1, 1), stride=(1, 1), bias=False)
  (decoder_level3): Sequential(
    (0): SCOSSBlock(
      (ln_1): LayerNorm((96,), eps=1e-06, elementwise_affine=True)
      (SOSS): SS2D(
        (in_proj): Linear(in_features=96, out_features=384, bias=False)
        (conv2d): Conv2d(192, 192, kernel_size=(3, 3), stride=(1, 1), padding=(1, 1), groups=192)
        (act): SiLU()
        (out_norm): LayerNorm((192,), eps=1e-05, elementwise_affine=True)
        (out_proj): Linear(in_features=192, out_features=96, bias=False)
      )
      (drop_path1): DropPath(drop_prob=0.000)
      (drop_path2): DropPath(drop_prob=0.000)
      (conv_blk): MSFFN(
        (a): Sequential(
          (0): Conv2d(96, 96, kernel_size=(1, 1), stride=(1, 1))
          (1): Conv2d(96, 96, kernel_size=(1, 1), stride=(1, 1), groups=96)
        )
        (a1): Sequential(
          (0): Conv2d(96, 96, kernel_size=(1, 1), stride=(1, 1))
          (1): Conv2d(96, 96, kernel_size=(1, 1), stride=(1, 1), groups=96)
        )
        (relu1): ReLU()
        (b): Sequential(
          (0): Conv2d(96, 96, kernel_size=(1, 1), stride=(1, 1))
          (1): Conv2d(96, 96, kernel_size=(3, 3), stride=(1, 1), padding=(1, 1), groups=96)
        )
        (b1): Sequential(
          (0): Conv2d(96, 96, kernel_size=(1, 1), stride=(1, 1))
          (1): Conv2d(96, 96, kernel_size=(3, 3), stride=(1, 1), padding=(1, 1), groups=96)
        )
        (relu2): ReLU()
        (c): Sequential(
          (0): Conv2d(96, 96, kernel_size=(1, 1), stride=(1, 1))
          (1): Conv2d(96, 96, kernel_size=(5, 5), stride=(1, 1), padding=(2, 2), groups=96)
        )
        (c1): Sequential(
          (0): Conv2d(96, 96, kernel_size=(1, 1), stride=(1, 1))
          (1): Conv2d(96, 96, kernel_size=(5, 5), stride=(1, 1), padding=(2, 2), groups=96)
        )
        (relu3): ReLU()
        (conv_out): Conv2d(288, 96, kernel_size=(1, 1), stride=(1, 1))
        (ln): LayerNorm((96,), eps=1e-05, elementwise_affine=True)
      )
      (ln_2): LayerNorm((96,), eps=1e-05, elementwise_affine=True)
      (CCOSS): CCOSS(
        (H_CSSM): Sequential(
          (0): ChannelMamba(
            (in_proj): Linear(in_features=64, out_features=128, bias=False)
            (act): SiLU()
            (ln): LayerNorm((96,), eps=1e-05, elementwise_affine=True)
            (ln1): LayerNorm((96,), eps=1e-05, elementwise_affine=True)
            (conv2d): Conv2d(96, 96, kernel_size=(3, 3), stride=(1, 1), padding=(1, 1), groups=96)
            (x_proj): Linear(in_features=64, out_features=36, bias=False)
            (dt_proj): Linear(in_features=4, out_features=64, bias=True)
            (x_proj_b): Linear(in_features=64, out_features=36, bias=False)
            (dt_proj_b): Linear(in_features=4, out_features=64, bias=True)
          )
          (1): ChannelMamba(
            (in_proj): Linear(in_features=64, out_features=128, bias=False)
            (act): SiLU()
            (ln): LayerNorm((96,), eps=1e-05, elementwise_affine=True)
            (ln1): LayerNorm((96,), eps=1e-05, elementwise_affine=True)
            (conv2d): Conv2d(96, 96, kernel_size=(3, 3), stride=(1, 1), padding=(1, 1), groups=96)
            (x_proj): Linear(in_features=64, out_features=36, bias=False)
            (dt_proj): Linear(in_features=4, out_features=64, bias=True)
            (x_proj_b): Linear(in_features=64, out_features=36, bias=False)
            (dt_proj_b): Linear(in_features=4, out_features=64, bias=True)
          )
        )
        (W_CSSM): Sequential(
          (0): ChannelMamba(
            (in_proj): Linear(in_features=64, out_features=128, bias=False)
            (act): SiLU()
            (ln): LayerNorm((96,), eps=1e-05, elementwise_affine=True)
            (ln1): LayerNorm((96,), eps=1e-05, elementwise_affine=True)
            (conv2d): Conv2d(96, 96, kernel_size=(3, 3), stride=(1, 1), padding=(1, 1), groups=96)
            (x_proj): Linear(in_features=64, out_features=36, bias=False)
            (dt_proj): Linear(in_features=4, out_features=64, bias=True)
            (x_proj_b): Linear(in_features=64, out_features=36, bias=False)
            (dt_proj_b): Linear(in_features=4, out_features=64, bias=True)
          )
          (1): ChannelMamba(
            (in_proj): Linear(in_features=64, out_features=128, bias=False)
            (act): SiLU()
            (ln): LayerNorm((96,), eps=1e-05, elementwise_affine=True)
            (ln1): LayerNorm((96,), eps=1e-05, elementwise_affine=True)
            (conv2d): Conv2d(96, 96, kernel_size=(3, 3), stride=(1, 1), padding=(1, 1), groups=96)
            (x_proj): Linear(in_features=64, out_features=36, bias=False)
            (dt_proj): Linear(in_features=4, out_features=64, bias=True)
            (x_proj_b): Linear(in_features=64, out_features=36, bias=False)
            (dt_proj_b): Linear(in_features=4, out_features=64, bias=True)
          )
        )
        (ln): LayerNorm((96,), eps=1e-05, elementwise_affine=True)
        (softmax): Softmax(dim=1)
        (conv_1x1): Conv2d(96, 96, kernel_size=(1, 1), stride=(1, 1), bias=False)
        (dwconv): Conv2d(96, 96, kernel_size=(1, 1), stride=(1, 1), groups=96, bias=False)
        (relu): ReLU()
        (bn): BatchNorm2d(96, eps=1e-05, momentum=0.1, affine=True, track_running_stats=True)
        (silu_h): SiLU()
        (silu_w): SiLU()
        (sigmoid_h): Sigmoid()
        (sigmoid_w): Sigmoid()
      )
    )
  )
  (up3_2): Upsample(
    (body): Sequential(
      (0): Conv2d(96, 192, kernel_size=(3, 3), stride=(1, 1), padding=(1, 1), bias=False)
      (1): PixelShuffle(upscale_factor=2)
    )
  )
  (reduce_chan_level2): Conv2d(96, 48, kernel_size=(1, 1), stride=(1, 1), bias=False)
  (decoder_level2): Sequential(
    (0): SCOSSBlock(
      (ln_1): LayerNorm((48,), eps=1e-06, elementwise_affine=True)
      (SOSS): SS2D(
        (in_proj): Linear(in_features=48, out_features=192, bias=False)
        (conv2d): Conv2d(96, 96, kernel_size=(3, 3), stride=(1, 1), padding=(1, 1), groups=96)
        (act): SiLU()
        (out_norm): LayerNorm((96,), eps=1e-05, elementwise_affine=True)
        (out_proj): Linear(in_features=96, out_features=48, bias=False)
      )
      (drop_path1): DropPath(drop_prob=0.000)
      (drop_path2): DropPath(drop_prob=0.000)
      (conv_blk): MSFFN(
        (a): Sequential(
          (0): Conv2d(48, 48, kernel_size=(1, 1), stride=(1, 1))
          (1): Conv2d(48, 48, kernel_size=(1, 1), stride=(1, 1), groups=48)
        )
        (a1): Sequential(
          (0): Conv2d(48, 48, kernel_size=(1, 1), stride=(1, 1))
          (1): Conv2d(48, 48, kernel_size=(1, 1), stride=(1, 1), groups=48)
        )
        (relu1): ReLU()
        (b): Sequential(
          (0): Conv2d(48, 48, kernel_size=(1, 1), stride=(1, 1))
          (1): Conv2d(48, 48, kernel_size=(3, 3), stride=(1, 1), padding=(1, 1), groups=48)
        )
        (b1): Sequential(
          (0): Conv2d(48, 48, kernel_size=(1, 1), stride=(1, 1))
          (1): Conv2d(48, 48, kernel_size=(3, 3), stride=(1, 1), padding=(1, 1), groups=48)
        )
        (relu2): ReLU()
        (c): Sequential(
          (0): Conv2d(48, 48, kernel_size=(1, 1), stride=(1, 1))
          (1): Conv2d(48, 48, kernel_size=(5, 5), stride=(1, 1), padding=(2, 2), groups=48)
        )
        (c1): Sequential(
          (0): Conv2d(48, 48, kernel_size=(1, 1), stride=(1, 1))
          (1): Conv2d(48, 48, kernel_size=(5, 5), stride=(1, 1), padding=(2, 2), groups=48)
        )
        (relu3): ReLU()
        (conv_out): Conv2d(144, 48, kernel_size=(1, 1), stride=(1, 1))
        (ln): LayerNorm((48,), eps=1e-05, elementwise_affine=True)
      )
      (ln_2): LayerNorm((48,), eps=1e-05, elementwise_affine=True)
      (CCOSS): CCOSS(
        (H_CSSM): Sequential(
          (0): ChannelMamba(
            (in_proj): Linear(in_features=128, out_features=256, bias=False)
            (act): SiLU()
            (ln): LayerNorm((48,), eps=1e-05, elementwise_affine=True)
            (ln1): LayerNorm((48,), eps=1e-05, elementwise_affine=True)
            (conv2d): Conv2d(48, 48, kernel_size=(3, 3), stride=(1, 1), padding=(1, 1), groups=48)
            (x_proj): Linear(in_features=128, out_features=40, bias=False)
            (dt_proj): Linear(in_features=8, out_features=128, bias=True)
            (x_proj_b): Linear(in_features=128, out_features=40, bias=False)
            (dt_proj_b): Linear(in_features=8, out_features=128, bias=True)
          )
          (1): ChannelMamba(
            (in_proj): Linear(in_features=128, out_features=256, bias=False)
            (act): SiLU()
            (ln): LayerNorm((48,), eps=1e-05, elementwise_affine=True)
            (ln1): LayerNorm((48,), eps=1e-05, elementwise_affine=True)
            (conv2d): Conv2d(48, 48, kernel_size=(3, 3), stride=(1, 1), padding=(1, 1), groups=48)
            (x_proj): Linear(in_features=128, out_features=40, bias=False)
            (dt_proj): Linear(in_features=8, out_features=128, bias=True)
            (x_proj_b): Linear(in_features=128, out_features=40, bias=False)
            (dt_proj_b): Linear(in_features=8, out_features=128, bias=True)
          )
        )
        (W_CSSM): Sequential(
          (0): ChannelMamba(
            (in_proj): Linear(in_features=128, out_features=256, bias=False)
            (act): SiLU()
            (ln): LayerNorm((48,), eps=1e-05, elementwise_affine=True)
            (ln1): LayerNorm((48,), eps=1e-05, elementwise_affine=True)
            (conv2d): Conv2d(48, 48, kernel_size=(3, 3), stride=(1, 1), padding=(1, 1), groups=48)
            (x_proj): Linear(in_features=128, out_features=40, bias=False)
            (dt_proj): Linear(in_features=8, out_features=128, bias=True)
            (x_proj_b): Linear(in_features=128, out_features=40, bias=False)
            (dt_proj_b): Linear(in_features=8, out_features=128, bias=True)
          )
          (1): ChannelMamba(
            (in_proj): Linear(in_features=128, out_features=256, bias=False)
            (act): SiLU()
            (ln): LayerNorm((48,), eps=1e-05, elementwise_affine=True)
            (ln1): LayerNorm((48,), eps=1e-05, elementwise_affine=True)
            (conv2d): Conv2d(48, 48, kernel_size=(3, 3), stride=(1, 1), padding=(1, 1), groups=48)
            (x_proj): Linear(in_features=128, out_features=40, bias=False)
            (dt_proj): Linear(in_features=8, out_features=128, bias=True)
            (x_proj_b): Linear(in_features=128, out_features=40, bias=False)
            (dt_proj_b): Linear(in_features=8, out_features=128, bias=True)
          )
        )
        (ln): LayerNorm((48,), eps=1e-05, elementwise_affine=True)
        (softmax): Softmax(dim=1)
        (conv_1x1): Conv2d(48, 48, kernel_size=(1, 1), stride=(1, 1), bias=False)
        (dwconv): Conv2d(48, 48, kernel_size=(1, 1), stride=(1, 1), groups=48, bias=False)
        (relu): ReLU()
        (bn): BatchNorm2d(48, eps=1e-05, momentum=0.1, affine=True, track_running_stats=True)
        (silu_h): SiLU()
        (silu_w): SiLU()
        (sigmoid_h): Sigmoid()
        (sigmoid_w): Sigmoid()
      )
    )
  )
  (up2_1): Upsample(
    (body): Sequential(
      (0): Conv2d(48, 96, kernel_size=(3, 3), stride=(1, 1), padding=(1, 1), bias=False)
      (1): PixelShuffle(upscale_factor=2)
    )
  )
  (reduce_chan_level1): Conv2d(48, 24, kernel_size=(1, 1), stride=(1, 1), bias=False)
  (decoder_level1): Sequential(
    (0): SCOSSBlock(
      (ln_1): LayerNorm((24,), eps=1e-06, elementwise_affine=True)
      (SOSS): SS2D(
        (in_proj): Linear(in_features=24, out_features=96, bias=False)
        (conv2d): Conv2d(48, 48, kernel_size=(3, 3), stride=(1, 1), padding=(1, 1), groups=48)
        (act): SiLU()
        (out_norm): LayerNorm((48,), eps=1e-05, elementwise_affine=True)
        (out_proj): Linear(in_features=48, out_features=24, bias=False)
      )
      (drop_path1): DropPath(drop_prob=0.000)
      (drop_path2): DropPath(drop_prob=0.000)
      (conv_blk): MSFFN(
        (a): Sequential(
          (0): Conv2d(24, 24, kernel_size=(1, 1), stride=(1, 1))
          (1): Conv2d(24, 24, kernel_size=(1, 1), stride=(1, 1), groups=24)
        )
        (a1): Sequential(
          (0): Conv2d(24, 24, kernel_size=(1, 1), stride=(1, 1))
          (1): Conv2d(24, 24, kernel_size=(1, 1), stride=(1, 1), groups=24)
        )
        (relu1): ReLU()
        (b): Sequential(
          (0): Conv2d(24, 24, kernel_size=(1, 1), stride=(1, 1))
          (1): Conv2d(24, 24, kernel_size=(3, 3), stride=(1, 1), padding=(1, 1), groups=24)
        )
        (b1): Sequential(
          (0): Conv2d(24, 24, kernel_size=(1, 1), stride=(1, 1))
          (1): Conv2d(24, 24, kernel_size=(3, 3), stride=(1, 1), padding=(1, 1), groups=24)
        )
        (relu2): ReLU()
        (c): Sequential(
          (0): Conv2d(24, 24, kernel_size=(1, 1), stride=(1, 1))
          (1): Conv2d(24, 24, kernel_size=(5, 5), stride=(1, 1), padding=(2, 2), groups=24)
        )
        (c1): Sequential(
          (0): Conv2d(24, 24, kernel_size=(1, 1), stride=(1, 1))
          (1): Conv2d(24, 24, kernel_size=(5, 5), stride=(1, 1), padding=(2, 2), groups=24)
        )
        (relu3): ReLU()
        (conv_out): Conv2d(72, 24, kernel_size=(1, 1), stride=(1, 1))
        (ln): LayerNorm((24,), eps=1e-05, elementwise_affine=True)
      )
      (ln_2): LayerNorm((24,), eps=1e-05, elementwise_affine=True)
      (CCOSS): CCOSS(
        (H_CSSM): Sequential(
          (0): ChannelMamba(
            (in_proj): Linear(in_features=256, out_features=512, bias=False)
            (act): SiLU()
            (ln): LayerNorm((24,), eps=1e-05, elementwise_affine=True)
            (ln1): LayerNorm((24,), eps=1e-05, elementwise_affine=True)
            (conv2d): Conv2d(24, 24, kernel_size=(3, 3), stride=(1, 1), padding=(1, 1), groups=24)
            (x_proj): Linear(in_features=256, out_features=48, bias=False)
            (dt_proj): Linear(in_features=16, out_features=256, bias=True)
            (x_proj_b): Linear(in_features=256, out_features=48, bias=False)
            (dt_proj_b): Linear(in_features=16, out_features=256, bias=True)
          )
          (1): ChannelMamba(
            (in_proj): Linear(in_features=256, out_features=512, bias=False)
            (act): SiLU()
            (ln): LayerNorm((24,), eps=1e-05, elementwise_affine=True)
            (ln1): LayerNorm((24,), eps=1e-05, elementwise_affine=True)
            (conv2d): Conv2d(24, 24, kernel_size=(3, 3), stride=(1, 1), padding=(1, 1), groups=24)
            (x_proj): Linear(in_features=256, out_features=48, bias=False)
            (dt_proj): Linear(in_features=16, out_features=256, bias=True)
            (x_proj_b): Linear(in_features=256, out_features=48, bias=False)
            (dt_proj_b): Linear(in_features=16, out_features=256, bias=True)
          )
        )
        (W_CSSM): Sequential(
          (0): ChannelMamba(
            (in_proj): Linear(in_features=256, out_features=512, bias=False)
            (act): SiLU()
            (ln): LayerNorm((24,), eps=1e-05, elementwise_affine=True)
            (ln1): LayerNorm((24,), eps=1e-05, elementwise_affine=True)
            (conv2d): Conv2d(24, 24, kernel_size=(3, 3), stride=(1, 1), padding=(1, 1), groups=24)
            (x_proj): Linear(in_features=256, out_features=48, bias=False)
            (dt_proj): Linear(in_features=16, out_features=256, bias=True)
            (x_proj_b): Linear(in_features=256, out_features=48, bias=False)
            (dt_proj_b): Linear(in_features=16, out_features=256, bias=True)
          )
          (1): ChannelMamba(
            (in_proj): Linear(in_features=256, out_features=512, bias=False)
            (act): SiLU()
            (ln): LayerNorm((24,), eps=1e-05, elementwise_affine=True)
            (ln1): LayerNorm((24,), eps=1e-05, elementwise_affine=True)
            (conv2d): Conv2d(24, 24, kernel_size=(3, 3), stride=(1, 1), padding=(1, 1), groups=24)
            (x_proj): Linear(in_features=256, out_features=48, bias=False)
            (dt_proj): Linear(in_features=16, out_features=256, bias=True)
            (x_proj_b): Linear(in_features=256, out_features=48, bias=False)
            (dt_proj_b): Linear(in_features=16, out_features=256, bias=True)
          )
        )
        (ln): LayerNorm((24,), eps=1e-05, elementwise_affine=True)
        (softmax): Softmax(dim=1)
        (conv_1x1): Conv2d(24, 24, kernel_size=(1, 1), stride=(1, 1), bias=False)
        (dwconv): Conv2d(24, 24, kernel_size=(1, 1), stride=(1, 1), groups=24, bias=False)
        (relu): ReLU()
        (bn): BatchNorm2d(24, eps=1e-05, momentum=0.1, affine=True, track_running_stats=True)
        (silu_h): SiLU()
        (silu_w): SiLU()
        (sigmoid_h): Sigmoid()
        (sigmoid_w): Sigmoid()
      )
    )
  )
  (output): Sequential(
    (0): GroupNorm(12, 24, eps=1e-05, affine=True)
    (1): SiLU()
    (2): Conv2d(24, 3, kernel_size=(1, 1), stride=(1, 1), bias=False)
  )
)
2026-04-19 17:06:09,179 INFO: Model [ImageCleanModel] is created.
2026-04-19 17:06:09,207 INFO: Start training from epoch: 0, iter: 0
2026-04-19 17:06:09,275 INFO: 
 Updating Patch_Size to 256 and Batch_Size to 2 

2026-04-19 17:06:47,242 INFO: [Water..][epoch: 33, iter:     100, lr:(3.000e-04,)] [eta: 1 day, 7:23:39, time (data): 0.376 (0.070)] l_pix: 6.0862e-03 
…
